…
To use the future default and silence this warning we advise to pass `rcond=None`, to keep using the old, explicitly pass `rcond=-1`.
  r, _, _, _ = lstsq(X, U)
/scratch/user/vishnukunde/semiblind-dps/DISS/integrations/mpgd/AdaFace/inference.py:25: UserWarning: Creating a tensor from a list of numpy.ndarrays is extremely slow. Please consider converting the list to a single numpy.ndarray with numpy.array() before converting to a tensor. (Triggered internally at  /opt/conda/conda-bld/pytorch_1646755903507/work/torch/csrc/utils/tensor_new.cpp:210.)
  tensor = torch.tensor([brg_img.transpose(2,0,1)]).float()
Search algorithm: group_recursive
reward grad scale: 1.0
InceptionResnetV1(
  (conv2d_1a): BasicConv2d(
    (conv): Conv2d(3, 32, kernel_size=(3, 3), stride=(2, 2), bias=False)
    (bn): BatchNorm2d(32, eps=0.001, momentum=0.1, affine=True, track_running_stats=True)
    (relu): ReLU()
  )
  (conv2d_2a): BasicConv2d(
    (conv): Conv2d(32, 32, kernel_size=(3, 3), stride=(1, 1), bias=False)
    (bn): BatchNorm2d(32, eps=0.001, momentum=0.1, affine=True, track_running_stats=True)
    (relu): ReLU()
  )
  (conv2d_2b): BasicConv2d(
    (conv): Conv2d(32, 64, kernel_size=(3, 3), stride=(1, 1), padding=(1, 1), bias=False)
    (bn): BatchNorm2d(64, eps=0.001, momentum=0.1, affine=True, track_running_stats=True)
    (relu): ReLU()
  )
  (maxpool_3a): MaxPool2d(kernel_size=3, stride=2, padding=0, dilation=1, ceil_mode=False)
  (conv2d_3b): BasicConv2d(
    (conv): Conv2d(64, 80, kernel_size=(1, 1), stride=(1, 1), bias=False)
    (bn): BatchNorm2d(80, eps=0.001, momentum=0.1, affine=True, track_running_stats=True)
    (relu): ReLU()
  )
  (conv2d_4a): BasicConv2d(
    (conv): Conv2d(80, 192, kernel_size=(3, 3), stride=(1, 1), bias=False)
    (bn): BatchNorm2d(192, eps=0.001, momentum=0.1, affine=True, track_running_stats=True)
    (relu): ReLU()
  )
  (conv2d_4b): BasicConv2d(
    (conv): Conv2d(192, 256, kernel_size=(3, 3), stride=(2, 2), bias=False)
    (bn): BatchNorm2d(256, eps=0.001, momentum=0.1, affine=True, track_running_stats=True)
    (relu): ReLU()
  )
  (repeat_1): Sequential(
    (0): Block35(
      (branch0): BasicConv2d(
        (conv): Conv2d(256, 32, kernel_size=(1, 1), stride=(1, 1), bias=False)
        (bn): BatchNorm2d(32, eps=0.001, momentum=0.1, affine=True, track_running_stats=True)
        (relu): ReLU()
      )
      (branch1): Sequential(
        (0): BasicConv2d(
          (conv): Conv2d(256, 32, kernel_size=(1, 1), stride=(1, 1), bias=False)
          (bn): BatchNorm2d(32, eps=0.001, momentum=0.1, affine=True, track_running_stats=True)
          (relu): ReLU()
        )
        (1): BasicConv2d(
          (conv): Conv2d(32, 32, kernel_size=(3, 3), stride=(1, 1), padding=(1, 1), bias=False)
          (bn): BatchNorm2d(32, eps=0.001, momentum=0.1, affine=True, track_running_stats=True)
          (relu): ReLU()
        )
      )
      (branch2): Sequential(
        (0): BasicConv2d(
          (conv): Conv2d(256, 32, kernel_size=(1, 1), stride=(1, 1), bias=False)
          (bn): BatchNorm2d(32, eps=0.001, momentum=0.1, affine=True, track_running_stats=True)
          (relu): ReLU()
        )
        (1): BasicConv2d(
          (conv): Conv2d(32, 32, kernel_size=(3, 3), stride=(1, 1), padding=(1, 1), bias=False)
          (bn): BatchNorm2d(32, eps=0.001, momentum=0.1, affine=True, track_running_stats=True)
          (relu): ReLU()
        )
        (2): BasicConv2d(
          (conv): Conv2d(32, 32, kernel_size=(3, 3), stride=(1, 1), padding=(1, 1), bias=False)
          (bn): BatchNorm2d(32, eps=0.001, momentum=0.1, affine=True, track_running_stats=True)
          (relu): ReLU()
        )
      )
      (conv2d): Conv2d(96, 256, kernel_size=(1, 1), stride=(1, 1))
      (relu): ReLU()
    )
    (1): Block35(
      (branch0): BasicConv2d(
        (conv): Conv2d(256, 32, kernel_size=(1, 1), stride=(1, 1), bias=False)
        (bn): BatchNorm2d(32, eps=0.001, momentum=0.1, affine=True, track_running_stats=True)
        (relu): ReLU()
      )
      (branch1): Sequential(
        (0): BasicConv2d(
          (conv): Conv2d(256, 32, kernel_size=(1, 1), stride=(1, 1), bias=False)
          (bn): BatchNorm2d(32, eps=0.001, momentum=0.1, affine=True, track_running_stats=True)
          (relu): ReLU()
        )
        (1): BasicConv2d(
          (conv): Conv2d(32, 32, kernel_size=(3, 3), stride=(1, 1), padding=(1, 1), bias=False)
          (bn): BatchNorm2d(32, eps=0.001, momentum=0.1, affine=True, track_running_stats=True)
          (relu): ReLU()
        )
      )
      (branch2): Sequential(
        (0): BasicConv2d(
          (conv): Conv2d(256, 32, kernel_size=(1, 1), stride=(1, 1), bias=False)
          (bn): BatchNorm2d(32, eps=0.001, momentum=0.1, affine=True, track_running_stats=True)
          (relu): ReLU()
        )
        (1): BasicConv2d(
          (conv): Conv2d(32, 32, kernel_size=(3, 3), stride=(1, 1), padding=(1, 1), bias=False)
          (bn): BatchNorm2d(32, eps=0.001, momentum=0.1, affine=True, track_running_stats=True)
          (relu): ReLU()
        )
        (2): BasicConv2d(
          (conv): Conv2d(32, 32, kernel_size=(3, 3), stride=(1, 1), padding=(1, 1), bias=False)
          (bn): BatchNorm2d(32, eps=0.001, momentum=0.1, affine=True, track_running_stats=True)
          (relu): ReLU()
        )
      )
      (conv2d): Conv2d(96, 256, kernel_size=(1, 1), stride=(1, 1))
      (relu): ReLU()
    )
    (2): Block35(
      (branch0): BasicConv2d(
        (conv): Conv2d(256, 32, kernel_size=(1, 1), stride=(1, 1), bias=False)
        (bn): BatchNorm2d(32, eps=0.001, momentum=0.1, affine=True, track_running_stats=True)
        (relu): ReLU()
      )
      (branch1): Sequential(
        (0): BasicConv2d(
          (conv): Conv2d(256, 32, kernel_size=(1, 1), stride=(1, 1), bias=False)
          (bn): BatchNorm2d(32, eps=0.001, momentum=0.1, affine=True, track_running_stats=True)
          (relu): ReLU()
        )
        (1): BasicConv2d(
          (conv): Conv2d(32, 32, kernel_size=(3, 3), stride=(1, 1), padding=(1, 1), bias=False)
          (bn): BatchNorm2d(32, eps=0.001, momentum=0.1, affine=True, track_running_stats=True)
          (relu): ReLU()
        )
      )
      (branch2): Sequential(
        (0): BasicConv2d(
          (conv): Conv2d(256, 32, kernel_size=(1, 1), stride=(1, 1), bias=False)
          (bn): BatchNorm2d(32, eps=0.001, momentum=0.1, affine=True, track_running_stats=True)
          (relu): ReLU()
        )
        (1): BasicConv2d(
          (conv): Conv2d(32, 32, kernel_size=(3, 3), stride=(1, 1), padding=(1, 1), bias=False)
          (bn): BatchNorm2d(32, eps=0.001, momentum=0.1, affine=True, track_running_stats=True)
          (relu): ReLU()
        )
        (2): BasicConv2d(
          (conv): Conv2d(32, 32, kernel_size=(3, 3), stride=(1, 1), padding=(1, 1), bias=False)
          (bn): BatchNorm2d(32, eps=0.001, momentum=0.1, affine=True, track_running_stats=True)
          (relu): ReLU()
        )
      )
      (conv2d): Conv2d(96, 256, kernel_size=(1, 1), stride=(1, 1))
      (relu): ReLU()
    )
    (3): Block35(
      (branch0): BasicConv2d(
        (conv): Conv2d(256, 32, kernel_size=(1, 1), stride=(1, 1), bias=False)
        (bn): BatchNorm2d(32, eps=0.001, momentum=0.1, affine=True, track_running_stats=True)
        (relu): ReLU()
      )
      (branch1): Sequential(
        (0): BasicConv2d(
          (conv): Conv2d(256, 32, kernel_size=(1, 1), stride=(1, 1), bias=False)
          (bn): BatchNorm2d(32, eps=0.001, momentum=0.1, affine=True, track_running_stats=True)
          (relu): ReLU()
        )
        (1): BasicConv2d(
          (conv): Conv2d(32, 32, kernel_size=(3, 3), stride=(1, 1), padding=(1, 1), bias=False)
          (bn): BatchNorm2d(32, eps=0.001, momentum=0.1, affine=True, track_running_stats=True)
          (relu): ReLU()
        )
      )
      (branch2): Sequential(
        (0): BasicConv2d(
          (conv): Conv2d(256, 32, kernel_size=(1, 1), stride=(1, 1), bias=False)
          (bn): BatchNorm2d(32, eps=0.001, momentum=0.1, affine=True, track_running_stats=True)
          (relu): ReLU()
        )
        (1): BasicConv2d(
          (conv): Conv2d(32, 32, kernel_size=(3, 3), stride=(1, 1), padding=(1, 1), bias=False)
          (bn): BatchNorm2d(32, eps=0.001, momentum=0.1, affine=True, track_running_stats=True)
          (relu): ReLU()
        )
        (2): BasicConv2d(
          (conv): Conv2d(32, 32, kernel_size=(3, 3), stride=(1, 1), padding=(1, 1), bias=False)
          (bn): BatchNorm2d(32, eps=0.001, momentum=0.1, affine=True, track_running_stats=True)
          (relu): ReLU()
        )
      )
      (conv2d): Conv2d(96, 256, kernel_size=(1, 1), stride=(1, 1))
      (relu): ReLU()
    )
    (4): Block35(
      (branch0): BasicConv2d(
        (conv): Conv2d(256, 32, kernel_size=(1, 1), stride=(1, 1), bias=False)
        (bn): BatchNorm2d(32, eps=0.001, momentum=0.1, affine=True, track_running_stats=True)
        (relu): ReLU()
      )
      (branch1): Sequential(
        (0): BasicConv2d(
          (conv): Conv2d(256, 32, kernel_size=(1, 1), stride=(1, 1), bias=False)
          (bn): BatchNorm2d(32, eps=0.001, momentum=0.1, affine=True, track_running_stats=True)
          (relu): ReLU()
        )
        (1): BasicConv2d(
          (conv): Conv2d(32, 32, kernel_size=(3, 3), stride=(1, 1), padding=(1, 1), bias=False)
          (bn): BatchNorm2d(32, eps=0.001, momentum=0.1, affine=True, track_running_stats=True)
          (relu): ReLU()
        )
      )
      (branch2): Sequential(
        (0): BasicConv2d(
          (conv): Conv2d(256, 32, kernel_size=(1, 1), stride=(1, 1), bias=False)
          (bn): BatchNorm2d(32, eps=0.001, momentum=0.1, affine=True, track_running_stats=True)
          (relu): ReLU()
        )
        (1): BasicConv2d(
          (conv): Conv2d(32, 32, kernel_size=(3, 3), stride=(1, 1), padding=(1, 1), bias=False)
          (bn): BatchNorm2d(32, eps=0.001, momentum=0.1, affine=True, track_running_stats=True)
          (relu): ReLU()
        )
        (2): BasicConv2d(
          (conv): Conv2d(32, 32, kernel_size=(3, 3), stride=(1, 1), padding=(1, 1), bias=False)
          (bn): BatchNorm2d(32, eps=0.001, momentum=0.1, affine=True, track_running_stats=True)
          (relu): ReLU()
        )
      )
      (conv2d): Conv2d(96, 256, kernel_size=(1, 1), stride=(1, 1))
      (relu): ReLU()
    )
  )
  (mixed_6a): Mixed_6a(
    (branch0): BasicConv2d(
      (conv): Conv2d(256, 384, kernel_size=(3, 3), stride=(2, 2), bias=False)
      (bn): BatchNorm2d(384, eps=0.001, momentum=0.1, affine=True, track_running_stats=True)
      (relu): ReLU()
    )
    (branch1): Sequential(
      (0): BasicConv2d(
        (conv): Conv2d(256, 192, kernel_size=(1, 1), stride=(1, 1), bias=False)
        (bn): BatchNorm2d(192, eps=0.001, momentum=0.1, affine=True, track_running_stats=True)
        (relu): ReLU()
      )
      (1): BasicConv2d(
        (conv): Conv2d(192, 192, kernel_size=(3, 3), stride=(1, 1), padding=(1, 1), bias=False)
        (bn): BatchNorm2d(192, eps=0.001, momentum=0.1, affine=True, track_running_stats=True)
        (relu): ReLU()
      )
      (2): BasicConv2d(
        (conv): Conv2d(192, 256, kernel_size=(3, 3), stride=(2, 2), bias=False)
        (bn): BatchNorm2d(256, eps=0.001, momentum=0.1, affine=True, track_running_stats=True)
        (relu): ReLU()
      )
    )
    (branch2): MaxPool2d(kernel_size=3, stride=2, padding=0, dilation=1, ceil_mode=False)
  )
  (repeat_2): Sequential(
    (0): Block17(
      (branch0): BasicConv2d(
        (conv): Conv2d(896, 128, kernel_size=(1, 1), stride=(1, 1), bias=False)
        (bn): BatchNorm2d(128, eps=0.001, momentum=0.1, affine=True, track_running_stats=True)
        (relu): ReLU()
      )
      (branch1): Sequential(
        (0): BasicConv2d(
          (conv): Conv2d(896, 128, kernel_size=(1, 1), stride=(1, 1), bias=False)
          (bn): BatchNorm2d(128, eps=0.001, momentum=0.1, affine=True, track_running_stats=True)
          (relu): ReLU()
        )
        (1): BasicConv2d(
          (conv): Conv2d(128, 128, kernel_size=(1, 7), stride=(1, 1), padding=(0, 3), bias=False)
          (bn): BatchNorm2d(128, eps=0.001, momentum=0.1, affine=True, track_running_stats=True)
          (relu): ReLU()
        )
        (2): BasicConv2d(
          (conv): Conv2d(128, 128, kernel_size=(7, 1), stride=(1, 1), padding=(3, 0), bias=False)
          (bn): BatchNorm2d(128, eps=0.001, momentum=0.1, affine=True, track_running_stats=True)
          (relu): ReLU()
        )
      )
      (conv2d): Conv2d(256, 896, kernel_size=(1, 1), stride=(1, 1))
      (relu): ReLU()
    )
    (1): Block17(
      (branch0): BasicConv2d(
        (conv): Conv2d(896, 128, kernel_size=(1, 1), stride=(1, 1), bias=False)
        (bn): BatchNorm2d(128, eps=0.001, momentum=0.1, affine=True, track_running_stats=True)
        (relu): ReLU()
      )
      (branch1): Sequential(
        (0): BasicConv2d(
          (conv): Conv2d(896, 128, kernel_size=(1, 1), stride=(1, 1), bias=False)
          (bn): BatchNorm2d(128, eps=0.001, momentum=0.1, affine=True, track_running_stats=True)
          (relu): ReLU()
        )
        (1): BasicConv2d(
          (conv): Conv2d(128, 128, kernel_size=(1, 7), stride=(1, 1), padding=(0, 3), bias=False)
          (bn): BatchNorm2d(128, eps=0.001, momentum=0.1, affine=True, track_running_stats=True)
          (relu): ReLU()
        )
        (2): BasicConv2d(
          (conv): Conv2d(128, 128, kernel_size=(7, 1), stride=(1, 1), padding=(3, 0), bias=False)
          (bn): BatchNorm2d(128, eps=0.001, momentum=0.1, affine=True, track_running_stats=True)
          (relu): ReLU()
        )
      )
      (conv2d): Conv2d(256, 896, kernel_size=(1, 1), stride=(1, 1))
      (relu): ReLU()
    )
    (2): Block17(
      (branch0): BasicConv2d(
        (conv): Conv2d(896, 128, kernel_size=(1, 1), stride=(1, 1), bias=False)
        (bn): BatchNorm2d(128, eps=0.001, momentum=0.1, affine=True, track_running_stats=True)
        (relu): ReLU()
      )
      (branch1): Sequential(
        (0): BasicConv2d(
          (conv): Conv2d(896, 128, kernel_size=(1, 1), stride=(1, 1), bias=False)
          (bn): BatchNorm2d(128, eps=0.001, momentum=0.1, affine=True, track_running_stats=True)
          (relu): ReLU()
        )
        (1): BasicConv2d(
          (conv): Conv2d(128, 128, kernel_size=(1, 7), stride=(1, 1), padding=(0, 3), bias=False)
          (bn): BatchNorm2d(128, eps=0.001, momentum=0.1, affine=True, track_running_stats=True)
          (relu): ReLU()
        )
        (2): BasicConv2d(
          (conv): Conv2d(128, 128, kernel_size=(7, 1), stride=(1, 1), padding=(3, 0), bias=False)
          (bn): BatchNorm2d(128, eps=0.001, momentum=0.1, affine=True, track_running_stats=True)
          (relu): ReLU()
        )
      )
      (conv2d): Conv2d(256, 896, kernel_size=(1, 1), stride=(1, 1))
      (relu): ReLU()
    )
    (3): Block17(
      (branch0): BasicConv2d(
        (conv): Conv2d(896, 128, kernel_size=(1, 1), stride=(1, 1), bias=False)
        (bn): BatchNorm2d(128, eps=0.001, momentum=0.1, affine=True, track_running_stats=True)
        (relu): ReLU()
      )
      (branch1): Sequential(
        (0): BasicConv2d(
          (conv): Conv2d(896, 128, kernel_size=(1, 1), stride=(1, 1), bias=False)
          (bn): BatchNorm2d(128, eps=0.001, momentum=0.1, affine=True, track_running_stats=True)
          (relu): ReLU()
        )
        (1): BasicConv2d(
          (conv): Conv2d(128, 128, kernel_size=(1, 7), stride=(1, 1), padding=(0, 3), bias=False)
          (bn): BatchNorm2d(128, eps=0.001, momentum=0.1, affine=True, track_running_stats=True)
          (relu): ReLU()
        )
        (2): BasicConv2d(
          (conv): Conv2d(128, 128, kernel_size=(7, 1), stride=(1, 1), padding=(3, 0), bias=False)
          (bn): BatchNorm2d(128, eps=0.001, momentum=0.1, affine=True, track_running_stats=True)
          (relu): ReLU()
        )
      )
      (conv2d): Conv2d(256, 896, kernel_size=(1, 1), stride=(1, 1))
      (relu): ReLU()
    )
    (4): Block17(
      (branch0): BasicConv2d(
        (conv): Conv2d(896, 128, kernel_size=(1, 1), stride=(1, 1), bias=False)
        (bn): BatchNorm2d(128, eps=0.001, momentum=0.1, affine=True, track_running_stats=True)
        (relu): ReLU()
      )
      (branch1): Sequential(
        (0): BasicConv2d(
          (conv): Conv2d(896, 128, kernel_size=(1, 1), stride=(1, 1), bias=False)
          (bn): BatchNorm2d(128, eps=0.001, momentum=0.1, affine=True, track_running_stats=True)
          (relu): ReLU()
        )
        (1): BasicConv2d(
          (conv): Conv2d(128, 128, kernel_size=(1, 7), stride=(1, 1), padding=(0, 3), bias=False)
          (bn): BatchNorm2d(128, eps=0.001, momentum=0.1, affine=True, track_running_stats=True)
          (relu): ReLU()
        )
        (2): BasicConv2d(
          (conv): Conv2d(128, 128, kernel_size=(7, 1), stride=(1, 1), padding=(3, 0), bias=False)
          (bn): BatchNorm2d(128, eps=0.001, momentum=0.1, affine=True, track_running_stats=True)
          (relu): ReLU()
        )
      )
      (conv2d): Conv2d(256, 896, kernel_size=(1, 1), stride=(1, 1))
      (relu): ReLU()
    )
    (5): Block17(
      (branch0): BasicConv2d(
        (conv): Conv2d(896, 128, kernel_size=(1, 1), stride=(1, 1), bias=False)
        (bn): BatchNorm2d(128, eps=0.001, momentum=0.1, affine=True, track_running_stats=True)
        (relu): ReLU()
      )
      (branch1): Sequential(
        (0): BasicConv2d(
          (conv): Conv2d(896, 128, kernel_size=(1, 1), stride=(1, 1), bias=False)
          (bn): BatchNorm2d(128, eps=0.001, momentum=0.1, affine=True, track_running_stats=True)
          (relu): ReLU()
        )
        (1): BasicConv2d(
          (conv): Conv2d(128, 128, kernel_size=(1, 7), stride=(1, 1), padding=(0, 3), bias=False)
          (bn): BatchNorm2d(128, eps=0.001, momentum=0.1, affine=True, track_running_stats=True)
          (relu): ReLU()
        )
        (2): BasicConv2d(
          (conv): Conv2d(128, 128, kernel_size=(7, 1), stride=(1, 1), padding=(3, 0), bias=False)
          (bn): BatchNorm2d(128, eps=0.001, momentum=0.1, affine=True, track_running_stats=True)
          (relu): ReLU()
        )
      )
      (conv2d): Conv2d(256, 896, kernel_size=(1, 1), stride=(1, 1))
      (relu): ReLU()
    )
    (6): Block17(
      (branch0): BasicConv2d(
        (conv): Conv2d(896, 128, kernel_size=(1, 1), stride=(1, 1), bias=False)
        (bn): BatchNorm2d(128, eps=0.001, momentum=0.1, affine=True, track_running_stats=True)
        (relu): ReLU()
      )
      (branch1): Sequential(
        (0): BasicConv2d(
          (conv): Conv2d(896, 128, kernel_size=(1, 1), stride=(1, 1), bias=False)
          (bn): BatchNorm2d(128, eps=0.001, momentum=0.1, affine=True, track_running_stats=True)
          (relu): ReLU()
        )
        (1): BasicConv2d(
          (conv): Conv2d(128, 128, kernel_size=(1, 7), stride=(1, 1), padding=(0, 3), bias=False)
          (bn): BatchNorm2d(128, eps=0.001, momentum=0.1, affine=True, track_running_stats=True)
          (relu): ReLU()
        )
        (2): BasicConv2d(
          (conv): Conv2d(128, 128, kernel_size=(7, 1), stride=(1, 1), padding=(3, 0), bias=False)
          (bn): BatchNorm2d(128, eps=0.001, momentum=0.1, affine=True, track_running_stats=True)
          (relu): ReLU()
        )
      )
      (conv2d): Conv2d(256, 896, kernel_size=(1, 1), stride=(1, 1))
      (relu): ReLU()
    )
    (7): Block17(
      (branch0): BasicConv2d(
        (conv): Conv2d(896, 128, kernel_size=(1, 1), stride=(1, 1), bias=False)
        (bn): BatchNorm2d(128, eps=0.001, momentum=0.1, affine=True, track_running_stats=True)
        (relu): ReLU()
      )
      (branch1): Sequential(
        (0): BasicConv2d(
          (conv): Conv2d(896, 128, kernel_size=(1, 1), stride=(1, 1), bias=False)
          (bn): BatchNorm2d(128, eps=0.001, momentum=0.1, affine=True, track_running_stats=True)
          (relu): ReLU()
        )
        (1): BasicConv2d(
          (conv): Conv2d(128, 128, kernel_size=(1, 7), stride=(1, 1), padding=(0, 3), bias=False)
          (bn): BatchNorm2d(128, eps=0.001, momentum=0.1, affine=True, track_running_stats=True)
          (relu): ReLU()
        )
        (2): BasicConv2d(
          (conv): Conv2d(128, 128, kernel_size=(7, 1), stride=(1, 1), padding=(3, 0), bias=False)
          (bn): BatchNorm2d(128, eps=0.001, momentum=0.1, affine=True, track_running_stats=True)
          (relu): ReLU()
        )
      )
      (conv2d): Conv2d(256, 896, kernel_size=(1, 1), stride=(1, 1))
      (relu): ReLU()
    )
    (8): Block17(
      (branch0): BasicConv2d(
        (conv): Conv2d(896, 128, kernel_size=(1, 1), stride=(1, 1), bias=False)
        (bn): BatchNorm2d(128, eps=0.001, momentum=0.1, affine=True, track_running_stats=True)
        (relu): ReLU()
      )
      (branch1): Sequential(
        (0): BasicConv2d(
          (conv): Conv2d(896, 128, kernel_size=(1, 1), stride=(1, 1), bias=False)
          (bn): BatchNorm2d(128, eps=0.001, momentum=0.1, affine=True, track_running_stats=True)
          (relu): ReLU()
        )
        (1): BasicConv2d(
          (conv): Conv2d(128, 128, kernel_size=(1, 7), stride=(1, 1), padding=(0, 3), bias=False)
          (bn): BatchNorm2d(128, eps=0.001, momentum=0.1, affine=True, track_running_stats=True)
          (relu): ReLU()
        )
        (2): BasicConv2d(
          (conv): Conv2d(128, 128, kernel_size=(7, 1), stride=(1, 1), padding=(3, 0), bias=False)
          (bn): BatchNorm2d(128, eps=0.001, momentum=0.1, affine=True, track_running_stats=True)
          (relu): ReLU()
        )
      )
      (conv2d): Conv2d(256, 896, kernel_size=(1, 1), stride=(1, 1))
      (relu): ReLU()
    )
    (9): Block17(
      (branch0): BasicConv2d(
        (conv): Conv2d(896, 128, kernel_size=(1, 1), stride=(1, 1), bias=False)
        (bn): BatchNorm2d(128, eps=0.001, momentum=0.1, affine=True, track_running_stats=True)
        (relu): ReLU()
      )
      (branch1): Sequential(
        (0): BasicConv2d(
          (conv): Conv2d(896, 128, kernel_size=(1, 1), stride=(1, 1), bias=False)
          (bn): BatchNorm2d(128, eps=0.001, momentum=0.1, affine=True, track_running_stats=True)
          (relu): ReLU()
        )
        (1): BasicConv2d(
          (conv): Conv2d(128, 128, kernel_size=(1, 7), stride=(1, 1), padding=(0, 3), bias=False)
          (bn): BatchNorm2d(128, eps=0.001, momentum=0.1, affine=True, track_running_stats=True)
          (relu): ReLU()
        )
        (2): BasicConv2d(
          (conv): Conv2d(128, 128, kernel_size=(7, 1), stride=(1, 1), padding=(3, 0), bias=False)
          (bn): BatchNorm2d(128, eps=0.001, momentum=0.1, affine=True, track_running_stats=True)
          (relu): ReLU()
        )
      )
      (conv2d): Conv2d(256, 896, kernel_size=(1, 1), stride=(1, 1))
      (relu): ReLU()
    )
  )
  (mixed_7a): Mixed_7a(
    (branch0): Sequential(
      (0): BasicConv2d(
        (conv): Conv2d(896, 256, kernel_size=(1, 1), stride=(1, 1), bias=False)
        (bn): BatchNorm2d(256, eps=0.001, momentum=0.1, affine=True, track_running_stats=True)
        (relu): ReLU()
      )
      (1): BasicConv2d(
        (conv): Conv2d(256, 384, kernel_size=(3, 3), stride=(2, 2), bias=False)
        (bn): BatchNorm2d(384, eps=0.001, momentum=0.1, affine=True, track_running_stats=True)
        (relu): ReLU()
      )
    )
    (branch1): Sequential(
      (0): BasicConv2d(
        (conv): Conv2d(896, 256, kernel_size=(1, 1), stride=(1, 1), bias=False)
        (bn): BatchNorm2d(256, eps=0.001, momentum=0.1, affine=True, track_running_stats=True)
        (relu): ReLU()
      )
      (1): BasicConv2d(
        (conv): Conv2d(256, 256, kernel_size=(3, 3), stride=(2, 2), bias=False)
        (bn): BatchNorm2d(256, eps=0.001, momentum=0.1, affine=True, track_running_stats=True)
        (relu): ReLU()
      )
    )
    (branch2): Sequential(
      (0): BasicConv2d(
        (conv): Conv2d(896, 256, kernel_size=(1, 1), stride=(1, 1), bias=False)
        (bn): BatchNorm2d(256, eps=0.001, momentum=0.1, affine=True, track_running_stats=True)
        (relu): ReLU()
      )
      (1): BasicConv2d(
        (conv): Conv2d(256, 256, kernel_size=(3, 3), stride=(1, 1), padding=(1, 1), bias=False)
        (bn): BatchNorm2d(256, eps=0.001, momentum=0.1, affine=True, track_running_stats=True)
        (relu): ReLU()
      )
      (2): BasicConv2d(
        (conv): Conv2d(256, 256, kernel_size=(3, 3), stride=(2, 2), bias=False)
        (bn): BatchNorm2d(256, eps=0.001, momentum=0.1, affine=True, track_running_stats=True)
        (relu): ReLU()
      )
    )
    (branch3): MaxPool2d(kernel_size=3, stride=2, padding=0, dilation=1, ceil_mode=False)
  )
  (repeat_3): Sequential(
    (0): Block8(
      (branch0): BasicConv2d(
        (conv): Conv2d(1792, 192, kernel_size=(1, 1), stride=(1, 1), bias=False)
        (bn): BatchNorm2d(192, eps=0.001, momentum=0.1, affine=True, track_running_stats=True)
        (relu): ReLU()
      )
      (branch1): Sequential(
        (0): BasicConv2d(
          (conv): Conv2d(1792, 192, kernel_size=(1, 1), stride=(1, 1), bias=False)
          (bn): BatchNorm2d(192, eps=0.001, momentum=0.1, affine=True, track_running_stats=True)
          (relu): ReLU()
        )
        (1): BasicConv2d(
          (conv): Conv2d(192, 192, kernel_size=(1, 3), stride=(1, 1), padding=(0, 1), bias=False)
          (bn): BatchNorm2d(192, eps=0.001, momentum=0.1, affine=True, track_running_stats=True)
          (relu): ReLU()
        )
        (2): BasicConv2d(
          (conv): Conv2d(192, 192, kernel_size=(3, 1), stride=(1, 1), padding=(1, 0), bias=False)
          (bn): BatchNorm2d(192, eps=0.001, momentum=0.1, affine=True, track_running_stats=True)
          (relu): ReLU()
        )
      )
      (conv2d): Conv2d(384, 1792, kernel_size=(1, 1), stride=(1, 1))
      (relu): ReLU()
    )
    (1): Block8(
      (branch0): BasicConv2d(
        (conv): Conv2d(1792, 192, kernel_size=(1, 1), stride=(1, 1), bias=False)
        (bn): BatchNorm2d(192, eps=0.001, momentum=0.1, affine=True, track_running_stats=True)
        (relu): ReLU()
      )
      (branch1): Sequential(
        (0): BasicConv2d(
          (conv): Conv2d(1792, 192, kernel_size=(1, 1), stride=(1, 1), bias=False)
          (bn): BatchNorm2d(192, eps=0.001, momentum=0.1, affine=True, track_running_stats=True)
          (relu): ReLU()
        )
        (1): BasicConv2d(
          (conv): Conv2d(192, 192, kernel_size=(1, 3), stride=(1, 1), padding=(0, 1), bias=False)
          (bn): BatchNorm2d(192, eps=0.001, momentum=0.1, affine=True, track_running_stats=True)
          (relu): ReLU()
        )
        (2): BasicConv2d(
          (conv): Conv2d(192, 192, kernel_size=(3, 1), stride=(1, 1), padding=(1, 0), bias=False)
          (bn): BatchNorm2d(192, eps=0.001, momentum=0.1, affine=True, track_running_stats=True)
          (relu): ReLU()
        )
      )
      (conv2d): Conv2d(384, 1792, kernel_size=(1, 1), stride=(1, 1))
      (relu): ReLU()
    )
    (2): Block8(
      (branch0): BasicConv2d(
        (conv): Conv2d(1792, 192, kernel_size=(1, 1), stride=(1, 1), bias=False)
        (bn): BatchNorm2d(192, eps=0.001, momentum=0.1, affine=True, track_running_stats=True)
        (relu): ReLU()
      )
      (branch1): Sequential(
        (0): BasicConv2d(
          (conv): Conv2d(1792, 192, kernel_size=(1, 1), stride=(1, 1), bias=False)
          (bn): BatchNorm2d(192, eps=0.001, momentum=0.1, affine=True, track_running_stats=True)
          (relu): ReLU()
        )
        (1): BasicConv2d(
          (conv): Conv2d(192, 192, kernel_size=(1, 3), stride=(1, 1), padding=(0, 1), bias=False)
          (bn): BatchNorm2d(192, eps=0.001, momentum=0.1, affine=True, track_running_stats=True)
          (relu): ReLU()
        )
        (2): BasicConv2d(
          (conv): Conv2d(192, 192, kernel_size=(3, 1), stride=(1, 1), padding=(1, 0), bias=False)
          (bn): BatchNorm2d(192, eps=0.001, momentum=0.1, affine=True, track_running_stats=True)
          (relu): ReLU()
        )
      )
      (conv2d): Conv2d(384, 1792, kernel_size=(1, 1), stride=(1, 1))
      (relu): ReLU()
    )
    (3): Block8(
      (branch0): BasicConv2d(
        (conv): Conv2d(1792, 192, kernel_size=(1, 1), stride=(1, 1), bias=False)
        (bn): BatchNorm2d(192, eps=0.001, momentum=0.1, affine=True, track_running_stats=True)
        (relu): ReLU()
      )
      (branch1): Sequential(
        (0): BasicConv2d(
          (conv): Conv2d(1792, 192, kernel_size=(1, 1), stride=(1, 1), bias=False)
          (bn): BatchNorm2d(192, eps=0.001, momentum=0.1, affine=True, track_running_stats=True)
          (relu): ReLU()
        )
        (1): BasicConv2d(
          (conv): Conv2d(192, 192, kernel_size=(1, 3), stride=(1, 1), padding=(0, 1), bias=False)
          (bn): BatchNorm2d(192, eps=0.001, momentum=0.1, affine=True, track_running_stats=True)
          (relu): ReLU()
        )
        (2): BasicConv2d(
          (conv): Conv2d(192, 192, kernel_size=(3, 1), stride=(1, 1), padding=(1, 0), bias=False)
          (bn): BatchNorm2d(192, eps=0.001, momentum=0.1, affine=True, track_running_stats=True)
          (relu): ReLU()
        )
      )
      (conv2d): Conv2d(384, 1792, kernel_size=(1, 1), stride=(1, 1))
      (relu): ReLU()
    )
    (4): Block8(
      (branch0): BasicConv2d(
        (conv): Conv2d(1792, 192, kernel_size=(1, 1), stride=(1, 1), bias=False)
        (bn): BatchNorm2d(192, eps=0.001, momentum=0.1, affine=True, track_running_stats=True)
        (relu): ReLU()
      )
      (branch1): Sequential(
        (0): BasicConv2d(
          (conv): Conv2d(1792, 192, kernel_size=(1, 1), stride=(1, 1), bias=False)
          (bn): BatchNorm2d(192, eps=0.001, momentum=0.1, affine=True, track_running_stats=True)
          (relu): ReLU()
        )
        (1): BasicConv2d(
          (conv): Conv2d(192, 192, kernel_size=(1, 3), stride=(1, 1), padding=(0, 1), bias=False)
          (bn): BatchNorm2d(192, eps=0.001, momentum=0.1, affine=True, track_running_stats=True)
          (relu): ReLU()
        )
        (2): BasicConv2d(
          (conv): Conv2d(192, 192, kernel_size=(3, 1), stride=(1, 1), padding=(1, 0), bias=False)
          (bn): BatchNorm2d(192, eps=0.001, momentum=0.1, affine=True, track_running_stats=True)
          (relu): ReLU()
        )
      )
      (conv2d): Conv2d(384, 1792, kernel_size=(1, 1), stride=(1, 1))
      (relu): ReLU()
    )
  )
  (block8): Block8(
    (branch0): BasicConv2d(
      (conv): Conv2d(1792, 192, kernel_size=(1, 1), stride=(1, 1), bias=False)
      (bn): BatchNorm2d(192, eps=0.001, momentum=0.1, affine=True, track_running_stats=True)
      (relu): ReLU()
    )
    (branch1): Sequential(
      (0): BasicConv2d(
        (conv): Conv2d(1792, 192, kernel_size=(1, 1), stride=(1, 1), bias=False)
        (bn): BatchNorm2d(192, eps=0.001, momentum=0.1, affine=True, track_running_stats=True)
        (relu): ReLU()
      )
      (1): BasicConv2d(
        (conv): Conv2d(192, 192, kernel_size=(1, 3), stride=(1, 1), padding=(0, 1), bias=False)
        (bn): BatchNorm2d(192, eps=0.001, momentum=0.1, affine=True, track_running_stats=True)
        (relu): ReLU()
      )
      (2): BasicConv2d(
        (conv): Conv2d(192, 192, kernel_size=(3, 1), stride=(1, 1), padding=(1, 0), bias=False)
        (bn): BatchNorm2d(192, eps=0.001, momentum=0.1, affine=True, track_running_stats=True)
        (relu): ReLU()
      )
    )
    (conv2d): Conv2d(384, 1792, kernel_size=(1, 1), stride=(1, 1))
  )
  (avgpool_1a): AdaptiveAvgPool2d(output_size=1)
  (dropout): Dropout(p=0.6, inplace=False)
  (last_linear): Linear(in_features=1792, out_features=512, bias=False)
  (last_bn): BatchNorm1d(512, eps=0.001, momentum=0.1, affine=True, track_running_stats=True)
  (logits): Linear(in_features=512, out_features=8631, bias=True)
)
batch size: 8
num particles: 8
n_images: 70
ref_face_img: tensor([[[[ 0.2863,  0.2784,  0.2784,  ...,  0.5529,  0.5608,  0.5608],
          [ 0.2941,  0.2863,  0.2863,  ...,  0.5608,  0.5608,  0.5608],
          [ 0.3020,  0.3020,  0.3020,  ...,  0.5608,  0.5608,  0.5608],
          ...,
          [-0.7333, -0.7333, -0.7333,  ..., -0.0353, -0.0510, -0.0667],
…
